…
Device count: 1
Device name: NVIDIA GeForce RTX 4070 Ti SUPER
Device properties: _CudaDeviceProperties(name='NVIDIA GeForce RTX 4070 Ti SUPER', major=8, minor=9, total_memory=16375MB, multi_processor_count=66)
Memory allocated: 0.00 MB
Memory reserved: 0.00 MB
=================================


==== CUDA DEBUG INFORMATION ====
PyTorch version: 2.4.1+cu124
CUDA available: True
----------------------------------------------------------------
        Layer (type)               Output Shape         Param #
================================================================
            Conv1d-1              [-1, 128, 32]          13,440
       BatchNorm1d-2              [-1, 32, 128]              64
               c1D-3              [-1, 32, 128]               0
         Dropout2d-4              [-1, 128, 32]               0
  spatialDropout1D-5              [-1, 32, 128]               0
            Conv1d-6               [-1, 64, 32]          24,576
       BatchNorm1d-7               [-1, 32, 64]              64
               c1D-8               [-1, 32, 64]               0
         Dropout2d-9               [-1, 64, 32]               0
 spatialDropout1D-10               [-1, 32, 64]               0
           Conv1d-11               [-1, 64, 32]           4,096
      BatchNorm1d-12               [-1, 32, 64]              64
              c1D-13               [-1, 32, 64]               0
        MaxPool1d-14               [-1, 64, 16]               0
        Dropout2d-15               [-1, 16, 64]               0
 spatialDropout1D-16               [-1, 64, 16]               0
           Conv1d-17              [-1, 128, 32]           3,840
      BatchNorm1d-18              [-1, 32, 128]              64
              c1D-19              [-1, 32, 128]               0
        Dropout2d-20              [-1, 128, 32]               0
 spatialDropout1D-21              [-1, 32, 128]               0
           Conv1d-22               [-1, 64, 32]          24,576
      BatchNorm1d-23               [-1, 32, 64]              64
              c1D-24               [-1, 32, 64]               0
        Dropout2d-25               [-1, 64, 32]               0
 spatialDropout1D-26               [-1, 32, 64]               0
           Conv1d-27               [-1, 64, 32]           4,096
      BatchNorm1d-28               [-1, 32, 64]              64
              c1D-29               [-1, 32, 64]               0
        MaxPool1d-30               [-1, 64, 16]               0
        Dropout2d-31               [-1, 16, 64]               0
 spatialDropout1D-32               [-1, 64, 16]               0
           Conv1d-33              [-1, 128, 16]           3,840
      BatchNorm1d-34              [-1, 16, 128]              32
              c1D-35              [-1, 16, 128]               0
        Dropout2d-36              [-1, 128, 16]               0
 spatialDropout1D-37              [-1, 16, 128]               0
           Conv1d-38               [-1, 64, 16]          24,576
      BatchNorm1d-39               [-1, 16, 64]              32
              c1D-40               [-1, 16, 64]               0
        Dropout2d-41               [-1, 64, 16]               0
 spatialDropout1D-42               [-1, 16, 64]               0
           Conv1d-43               [-1, 64, 16]           4,096
      BatchNorm1d-44               [-1, 16, 64]              32
              c1D-45               [-1, 16, 64]               0
        Dropout2d-46               [-1, 64, 16]               0
 spatialDropout1D-47               [-1, 16, 64]               0
           Conv1d-48              [-1, 128, 16]          73,728
      BatchNorm1d-49              [-1, 16, 128]              32
              c1D-50              [-1, 16, 128]               0
           Conv1d-51              [-1, 128, 16]          49,152
      BatchNorm1d-52              [-1, 16, 128]              32
              c1D-53              [-1, 16, 128]               0
            block-54              [-1, 16, 128]               0
        MaxPool1d-55               [-1, 128, 8]               0
        Dropout2d-56               [-1, 8, 128]               0
 spatialDropout1D-57               [-1, 128, 8]               0
           Conv1d-58               [-1, 256, 8]          98,304
      BatchNorm1d-59               [-1, 8, 256]              16
              c1D-60               [-1, 8, 256]               0
           Conv1d-61               [-1, 256, 8]         196,608
      BatchNorm1d-62               [-1, 8, 256]              16
              c1D-63               [-1, 8, 256]               0
            block-64               [-1, 8, 256]               0
        MaxPool1d-65               [-1, 256, 4]               0
        Dropout2d-66               [-1, 4, 256]               0
 spatialDropout1D-67               [-1, 256, 4]               0
           Conv1d-68               [-1, 512, 4]         393,216
      BatchNorm1d-69               [-1, 4, 512]               8
              c1D-70               [-1, 4, 512]               0
           Conv1d-71               [-1, 512, 4]         786,432
      BatchNorm1d-72               [-1, 4, 512]               8
              c1D-73               [-1, 4, 512]               0
            block-74               [-1, 4, 512]               0
        Dropout2d-75               [-1, 512, 4]               0
 spatialDropout1D-76               [-1, 4, 512]               0
           Linear-77                  [-1, 128]          65,664
      BatchNorm1d-78                  [-1, 128]             256
              d1D-79                  [-1, 128]               0
          Dropout-80                  [-1, 128]               0
           Linear-81                  [-1, 128]          16,512
      BatchNorm1d-82                  [-1, 128]             256
              d1D-83                  [-1, 128]               0
          Dropout-84                  [-1, 128]               0
           Linear-85                   [-1, 21]           2,709
   DDNet_Original-86                   [-1, 21]               0
================================================================
Total params: 1,790,565
Trainable params: 1,790,565
Non-trainable params: 0
----------------------------------------------------------------
Input size (MB): 12.30
Forward/backward pass size (MB): 1.18
Params size (MB): 6.83
Estimated Total Size (MB): 20.32
----------------------------------------------------------------

Train Epoch: 1 [0/433 (0%)]	Loss: 3.278727
…
